{"format": "layers-model", "generatedBy": "keras v2.7.0", "convertedBy": "TensorFlow.js Converter v3.11.0", "modelTopology": {"keras_version": "2.7.0", "backend": "tensorflow", "model_config": {"class_name": "Functional", "config": {"name": "model", "layers": [{"class_name": "InputLayer", "config": {"batch_input_shape": [null, null, null, 3], "dtype": "float32", "sparse": false, "ragged": false, "name": "input_1"}, "name": "input_1", "inbound_nodes": []}, {"class_name": "Sequential", "config": {"name": "sequential", "layers": [{"class_name": "InputLayer", "config": {"batch_input_shape": [null, null, null, 3], "dtype": "float32", "sparse": false, "ragged": false, "name": "conv2d_input"}}, {"class_name": "Conv2D", "config": {"name": "conv2d", "trainable": true, "dtype": "float32", "filters": 64, "kernel_size": [4, 4], "strides": [2, 2], "padding": "same", "data_format": "channels_last", "dilation_rate": [1, 1], "groups": 1, "activation": "linear", "use_bias": false, "kernel_initializer": {"class_name": "RandomNormal", "config": {"mean": 0.0, "stddev": 0.02, "seed": null}}, "bias_initializer": {"class_name": "Zeros", "config": {}}, "kernel_regularizer": null, "bias_regularizer": null, "activity_regularizer": null, "kernel_constraint": null, "bias_constraint": null}}, {"class_name": "LeakyReLU", "config": {"name": "leaky_re_lu", "trainable": true, "dtype": "float32", "alpha": 0.30000001192092896}}]}, "name": "sequential", "inbound_nodes": [[["input_1", 0, 0, {}]]]}, {"class_name": "Sequential", "config": {"name": "sequential_1", "layers": [{"class_name": "InputLayer", "config": {"batch_input_shape": [null, null, null, 64], "dtype": "float32", "sparse": false, "ragged": false, "name": "conv2d_1_input"}}, {"class_name": "Conv2D", "config": {"name": "conv2d_1", "trainable": true, "dtype": "float32", "filters": 128, "kernel_size": [4, 4], "strides": [2, 2], "padding": "same", "data_format": "channels_last", "dilation_rate": [1, 1], "groups": 1, "activation": "linear", "use_bias": false, "kernel_initializer": {"class_name": "RandomNormal", "config": {"mean": 0.0, "stddev": 0.02, "seed": null}}, "bias_initializer": {"class_name": "Zeros", "config": {}}, "kernel_regularizer": null, "bias_regularizer": null, "activity_regularizer": null, "kernel_constraint": null, "bias_constraint": null}}, {"class_name": "InstanceNormalization", "config": {"name": "instance_normalization", "trainable": true, "dtype": "float32", "epsilon": 1e-05}}, {"class_name": "LeakyReLU", "config": {"name": "leaky_re_lu_1", "trainable": true, "dtype": "float32", "alpha": 0.30000001192092896}}]}, "name": "sequential_1", "inbound_nodes": [[["sequential", 1, 0, {}]]]}, {"class_name": "Sequential", "config": {"name": "sequential_2", "layers": [{"class_name": "InputLayer", "config": {"batch_input_shape": [null, null, null, 128], "dtype": "float32", "sparse": false, "ragged": false, "name": "conv2d_2_input"}}, {"class_name": "Conv2D", "config": {"name": "conv2d_2", "trainable": true, "dtype": "float32", "filters": 256, "kernel_size": [4, 4], "strides": [2, 2], "padding": "same", "data_format": "channels_last", "dilation_rate": [1, 1], "groups": 1, "activation": "linear", "use_bias": false, "kernel_initializer": {"class_name": "RandomNormal", "config": {"mean": 0.0, "stddev": 0.02, "seed": null}}, "bias_initializer": {"class_name": "Zeros", "config": {}}, "kernel_regularizer": null, "bias_regularizer": null, "activity_regularizer": null, "kernel_constraint": null, "bias_constraint": null}}, {"class_name": "InstanceNormalization", "config": {"name": "instance_normalization_1", "trainable": true, "dtype": "float32", "epsilon": 1e-05}}, {"class_name": "LeakyReLU", "config": {"name": "leaky_re_lu_2", "trainable": true, "dtype": "float32", "alpha": 0.30000001192092896}}]}, "name": "sequential_2", "inbound_nodes": [[["sequential_1", 1, 0, {}]]]}, {"class_name": "Sequential", "config": {"name": "sequential_3", "layers": [{"class_name": "InputLayer", "config": {"batch_input_shape": [null, null, null, 256], "dtype": "float32", "sparse": false, "ragged": false, "name": "conv2d_3_input"}}, {"class_name": "Conv2D", "config": {"name": "conv2d_3", "trainable": true, "dtype": "float32", "filters": 512, "kernel_size": [4, 4], "strides": [2, 2], "padding": "same", "data_format": "channels_last", "dilation_rate": [1, 1], "groups": 1, "activation": "linear", "use_bias": false, "kernel_initializer": {"class_name": "RandomNormal", "config": {"mean": 0.0, "stddev": 0.02, "seed": null}}, "bias_initializer": {"class_name": "Zeros", "config": {}}, "kernel_regularizer": null, "bias_regularizer": null, "activity_regularizer": null, "kernel_constraint": null, "bias_constraint": null}}, {"class_name": "InstanceNormalization", "config": {"name": "instance_normalization_2", "trainable": true, "dtype": "float32", "epsilon": 1e-05}}, {"class_name": "LeakyReLU", "config": {"name": "leaky_re_lu_3", "trainable": true, "dtype": "float32", "alpha": 0.30000001192092896}}]}, "name": "sequential_3", "inbound_nodes": [[["sequential_2", 1, 0, {}]]]}, {"class_name": "Sequential", "config": {"name": "sequential_4", "layers": [{"class_name": "InputLayer", "config": {"batch_input_shape": [null, null, null, 512], "dtype": "float32", "sparse": false, "ragged": false, "name": "conv2d_4_input"}}, {"class_name": "Conv2D", "config": {"name": "conv2d_4", "trainable": true, "dtype": "float32", "filters": 512, "kernel_size": [4, 4], "strides": [2, 2], "padding": "same", "data_format": "channels_last", "dilation_rate": [1, 1], "groups": 1, "activation": "linear", "use_bias": false, "kernel_initializer": {"class_name": "RandomNormal", "config": {"mean": 0.0, "stddev": 0.02, "seed": null}}, "bias_initializer": {"class_name": "Zeros", "config": {}}, "kernel_regularizer": null, "bias_regularizer": null, "activity_regularizer": null, "kernel_constraint": null, "bias_constraint": null}}, {"class_name": "InstanceNormalization", "config": {"name": "instance_normalization_3", "trainable": true, "dtype": "float32", "epsilon": 1e-05}}, {"class_name": "LeakyReLU", "config": {"name": "leaky_re_lu_4", "trainable": true, "dtype": "float32", "alpha": 0.30000001192092896}}]}, "name": "sequential_4", "inbound_nodes": [[["sequential_3", 1, 0, {}]]]}, {"class_name": "Sequential", "config": {"name": "sequential_5", "layers": [{"class_name": "InputLayer", "config": {"batch_input_shape": [null, null, null, 512], "dtype": "float32", "sparse": false, "ragged": false, "name": "conv2d_5_input"}}, {"class_name": "Conv2D", "config": {"name": "conv2d_5", "trainable": true, "dtype": "float32", "filters": 512, "kernel_size": [4, 4], "strides": [2, 2], "padding": "same", "data_format": "channels_last", "dilation_rate": [1, 1], "groups": 1, "activation": "linear", "use_bias": false, "kernel_initializer": {"class_name": "RandomNormal", "config": {"mean": 0.0, "stddev": 0.02, "seed": null}}, "bias_initializer": {"class_name": "Zeros", "config": {}}, "kernel_regularizer": null, "bias_regularizer": null, "activity_regularizer": null, "kernel_constraint": null, "bias_constraint": null}}, {"class_name": "InstanceNormalization", "config": {"name": "instance_normalization_4", "trainable": true, "dtype": "float32", "epsilon": 1e-05}}, {"class_name": "LeakyReLU", "config": {"name": "leaky_re_lu_5", "trainable": true, "dtype": "float32", "alpha": 0.30000001192092896}}]}, "name": "sequential_5", "inbound_nodes": [[["sequential_4", 1, 0, {}]]]}, {"class_name": "Sequential", "config": {"name": "sequential_6", "layers": [{"class_name": "InputLayer", "config": {"batch_input_shape": [null, null, null, 512], "dtype": "float32", "sparse": false, "ragged": false, "name": "conv2d_6_input"}}, {"class_name": "Conv2D", "config": {"name": "conv2d_6", "trainable": true, "dtype": "float32", "filters": 512, "kernel_size": [4, 4], "strides": [2, 2], "padding": "same", "data_format": "channels_last", "dilation_rate": [1, 1], "groups": 1, "activation": "linear", "use_bias": false, "kernel_initializer": {"class_name": "RandomNormal", "config": {"mean": 0.0, "stddev": 0.02, "seed": null}}, "bias_initializer": {"class_name": "Zeros", "config": {}}, "kernel_regularizer": null, "bias_regularizer": null, "activity_regularizer": null, "kernel_constraint": null, "bias_constraint": null}}, {"class_name": "InstanceNormalization", "config": {"name": "instance_normalization_5", "trainable": true, "dtype": "float32", "epsilon": 1e-05}}, {"class_name": "LeakyReLU", "config": {"name": "leaky_re_lu_6", "trainable": true, "dtype": "float32", "alpha": 0.30000001192092896}}]}, "name": "sequential_6", "inbound_nodes": [[["sequential_5", 1, 0, {}]]]}, {"class_name": "Sequential", "config": {"name": "sequential_7", "layers": [{"class_name": "InputLayer", "config": {"batch_input_shape": [null, null, null, 512], "dtype": "float32", "sparse": false, "ragged": false, "name": "conv2d_7_input"}}, {"class_name": "Conv2D", "config": {"name": "conv2d_7", "trainable": true, "dtype": "float32", "filters": 512, "kernel_size": [4, 4], "strides": [2, 2], "padding": "same", "data_format": "channels_last", "dilation_rate": [1, 1], "groups": 1, "activation": "linear", "use_bias": false, "kernel_initializer": {"class_name": "RandomNormal", "config": {"mean": 0.0, "stddev": 0.02, "seed": null}}, "bias_initializer": {"class_name": "Zeros", "config": {}}, "kernel_regularizer": null, "bias_regularizer": null, "activity_regularizer": null, "kernel_constraint": null, "bias_constraint": null}}, {"class_name": "InstanceNormalization", "config": {"name": "instance_normalization_6", "trainable": true, "dtype": "float32", "epsilon": 1e-05}}, {"class_name": "LeakyReLU", "config": {"name": "leaky_re_lu_7", "trainable": true, "dtype": "float32", "alpha": 0.30000001192092896}}]}, "name": "sequential_7", "inbound_nodes": [[["sequential_6", 1, 0, {}]]]}, {"class_name": "Sequential", "config": {"name": "sequential_8", "layers": [{"class_name": "InputLayer", "config": {"batch_input_shape": [null, null, null, 512], "dtype": "float32", "sparse": false, "ragged": false, "name": "conv2d_transpose_input"}}, {"class_name": "Conv2DTranspose", "config": {"name": "conv2d_transpose", "trainable": true, "dtype": "float32", "filters": 512, "kernel_size": [4, 4], "strides": [2, 2], "padding": "same", "data_format": "channels_last", "dilation_rate": [1, 1], "groups": 1, "activation": "linear", "use_bias": false, "kernel_initializer": {"class_name": "RandomNormal", "config": {"mean": 0.0, "stddev": 0.02, "seed": null}}, "bias_initializer": {"class_name": "Zeros", "config": {}}, "kernel_regularizer": null, "bias_regularizer": null, "activity_regularizer": null, "kernel_constraint": null, "bias_constraint": null, "output_padding": null}}, {"class_name": "InstanceNormalization", "config": {"name": "instance_normalization_7", "trainable": true, "dtype": "float32", "epsilon": 1e-05}}, {"class_name": "Dropout", "config": {"name": "dropout", "trainable": true, "dtype": "float32", "rate": 0.5, "noise_shape": null, "seed": null}}, {"class_name": "ReLU", "config": {"name": "re_lu", "trainable": true, "dtype": "float32", "max_value": null, "negative_slope": 0.0, "threshold": 0.0}}]}, "name": "sequential_8", "inbound_nodes": [[["sequential_7", 1, 0, {}]]]}, {"class_name": "Concatenate", "config": {"name": "concatenate", "trainable": true, "dtype": "float32", "axis": -1}, "name": "concatenate", "inbound_nodes": [[["sequential_8", 1, 0, {}], ["sequential_6", 1, 0, {}]], [["sequential_9", 1, 0, {}], ["sequential_5", 1, 0, {}]], [["sequential_10", 1, 0, {}], ["sequential_4", 1, 0, {}]], [["sequential_11", 1, 0, {}], ["sequential_3", 1, 0, {}]], [["sequential_12", 1, 0, {}], ["sequential_2", 1, 0, {}]], [["sequential_13", 1, 0, {}], ["sequential_1", 1, 0, {}]], [["sequential_14", 1, 0, {}], ["sequential", 1, 0, {}]]]}, {"class_name": "Sequential", "config": {"name": "sequential_9", "layers": [{"class_name": "InputLayer", "config": {"batch_input_shape": [null, null, null, 1024], "dtype": "float32", "sparse": false, "ragged": false, "name": "conv2d_transpose_1_input"}}, {"class_name": "Conv2DTranspose", "config": {"name": "conv2d_transpose_1", "trainable": true, "dtype": "float32", "filters": 512, "kernel_size": [4, 4], "strides": [2, 2], "padding": "same", "data_format": "channels_last", "dilation_rate": [1, 1], "groups": 1, "activation": "linear", "use_bias": false, "kernel_initializer": {"class_name": "RandomNormal", "config": {"mean": 0.0, "stddev": 0.02, "seed": null}}, "bias_initializer": {"class_name": "Zeros", "config": {}}, "kernel_regularizer": null, "bias_regularizer": null, "activity_regularizer": null, "kernel_constraint": null, "bias_constraint": null, "output_padding": null}}, {"class_name": "InstanceNormalization", "config": {"name": "instance_normalization_8", "trainable": true, "dtype": "float32", "epsilon": 1e-05}}, {"class_name": "Dropout", "config": {"name": "dropout_1", "trainable": true, "dtype": "float32", "rate": 0.5, "noise_shape": null, "seed": null}}, {"class_name": "ReLU", "config": {"name": "re_lu_1", "trainable": true, "dtype": "float32", "max_value": null, "negative_slope": 0.0, "threshold": 0.0}}]}, "name": "sequential_9", "inbound_nodes": [[["concatenate", 0, 0, {}]]]}, {"class_name": "Sequential", "config": {"name": "sequential_10", "layers": [{"class_name": "InputLayer", "config": {"batch_input_shape": [null, null, null, 1024], "dtype": "float32", "sparse": false, "ragged": false, "name": "conv2d_transpose_2_input"}}, {"class_name": "Conv2DTranspose", "config": {"name": "conv2d_transpose_2", "trainable": true, "dtype": "float32", "filters": 512, "kernel_size": [4, 4], "strides": [2, 2], "padding": "same", "data_format": "channels_last", "dilation_rate": [1, 1], "groups": 1, "activation": "linear", "use_bias": false, "kernel_initializer": {"class_name": "RandomNormal", "config": {"mean": 0.0, "stddev": 0.02, "seed": null}}, "bias_initializer": {"class_name": "Zeros", "config": {}}, "kernel_regularizer": null, "bias_regularizer": null, "activity_regularizer": null, "kernel_constraint": null, "bias_constraint": null, "output_padding": null}}, {"class_name": "InstanceNormalization", "config": {"name": "instance_normalization_9", "trainable": true, "dtype": "float32", "epsilon": 1e-05}}, {"class_name": "Dropout", "config": {"name": "dropout_2", "trainable": true, "dtype": "float32", "rate": 0.5, "noise_shape": null, "seed": null}}, {"class_name": "ReLU", "config": {"name": "re_lu_2", "trainable": true, "dtype": "float32", "max_value": null, "negative_slope": 0.0, "threshold": 0.0}}]}, "name": "sequential_10", "inbound_nodes": [[["concatenate", 1, 0, {}]]]}, {"class_name": "Sequential", "config": {"name": "sequential_11", "layers": [{"class_name": "InputLayer", "config": {"batch_input_shape": [null, null, null, 1024], "dtype": "float32", "sparse": false, "ragged": false, "name": "conv2d_transpose_3_input"}}, {"class_name": "Conv2DTranspose", "config": {"name": "conv2d_transpose_3", "trainable": true, "dtype": "float32", "filters": 512, "kernel_size": [4, 4], "strides": [2, 2], "padding": "same", "data_format": "channels_last", "dilation_rate": [1, 1], "groups": 1, "activation": "linear", "use_bias": false, "kernel_initializer": {"class_name": "RandomNormal", "config": {"mean": 0.0, "stddev": 0.02, "seed": null}}, "bias_initializer": {"class_name": "Zeros", "config": {}}, "kernel_regularizer": null, "bias_regularizer": null, "activity_regularizer": null, "kernel_constraint": null, "bias_constraint": null, "output_padding": null}}, {"class_name": "InstanceNormalization", "config": {"name": "instance_normalization_10", "trainable": true, "dtype": "float32", "epsilon": 1e-05}}, {"class_name": "ReLU", "config": {"name": "re_lu_3", "trainable": true, "dtype": "float32", "max_value": null, "negative_slope": 0.0, "threshold": 0.0}}]}, "name": "sequential_11", "inbound_nodes": [[["concatenate", 2, 0, {}]]]}, {"class_name": "Sequential", "config": {"name": "sequential_12", "layers": [{"class_name": "InputLayer", "config": {"batch_input_shape": [null, null, null, 1024], "dtype": "float32", "sparse": false, "ragged": false, "name": "conv2d_transpose_4_input"}}, {"class_name": "Conv2DTranspose", "config": {"name": "conv2d_transpose_4", "trainable": true, "dtype": "float32", "filters": 256, "kernel_size": [4, 4], "strides": [2, 2], "padding": "same", "data_format": "channels_last", "dilation_rate": [1, 1], "groups": 1, "activation": "linear", "use_bias": false, "kernel_initializer": {"class_name": "RandomNormal", "config": {"mean": 0.0, "stddev": 0.02, "seed": null}}, "bias_initializer": {"class_name": "Zeros", "config": {}}, "kernel_regularizer": null, "bias_regularizer": null, "activity_regularizer": null, "kernel_constraint": null, "bias_constraint": null, "output_padding": null}}, {"class_name": "InstanceNormalization", "config": {"name": "instance_normalization_11", "trainable": true, "dtype": "float32", "epsilon": 1e-05}}, {"class_name": "ReLU", "config": {"name": "re_lu_4", "trainable": true, "dtype": "float32", "max_value": null, "negative_slope": 0.0, "threshold": 0.0}}]}, "name": "sequential_12", "inbound_nodes": [[["concatenate", 3, 0, {}]]]}, {"class_name": "Sequential", "config": {"name": "sequential_13", "layers": [{"class_name": "InputLayer", "config": {"batch_input_shape": [null, null, null, 512], "dtype": "float32", "sparse": false, "ragged": false, "name": "conv2d_transpose_5_input"}}, {"class_name": "Conv2DTranspose", "config": {"name": "conv2d_transpose_5", "trainable": true, "dtype": "float32", "filters": 128, "kernel_size": [4, 4], "strides": [2, 2], "padding": "same", "data_format": "channels_last", "dilation_rate": [1, 1], "groups": 1, "activation": "linear", "use_bias": false, "kernel_initializer": {"class_name": "RandomNormal", "config": {"mean": 0.0, "stddev": 0.02, "seed": null}}, "bias_initializer": {"class_name": "Zeros", "config": {}}, "kernel_regularizer": null, "bias_regularizer": null, "activity_regularizer": null, "kernel_constraint": null, "bias_constraint": null, "output_padding": null}}, {"class_name": "InstanceNormalization", "config": {"name": "instance_normalization_12", "trainable": true, "dtype": "float32", "epsilon": 1e-05}}, {"class_name": "ReLU", "config": {"name": "re_lu_5", "trainable": true, "dtype": "float32", "max_value": null, "negative_slope": 0.0, "threshold": 0.0}}]}, "name": "sequential_13", "inbound_nodes": [[["concatenate", 4, 0, {}]]]}, {"class_name": "Sequential", "config": {"name": "sequential_14", "layers": [{"class_name": "InputLayer", "config": {"batch_input_shape": [null, null, null, 256], "dtype": "float32", "sparse": false, "ragged": false, "name": "conv2d_transpose_6_input"}}, {"class_name": "Conv2DTranspose", "config": {"name": "conv2d_transpose_6", "trainable": true, "dtype": "float32", "filters": 64, "kernel_size": [4, 4], "strides": [2, 2], "padding": "same", "data_format": "channels_last", "dilation_rate": [1, 1], "groups": 1, "activation": "linear", "use_bias": false, "kernel_initializer": {"class_name": "RandomNormal", "config": {"mean": 0.0, "stddev": 0.02, "seed": null}}, "bias_initializer": {"class_name": "Zeros", "config": {}}, "kernel_regularizer": null, "bias_regularizer": null, "activity_regularizer": null, "kernel_constraint": null, "bias_constraint": null, "output_padding": null}}, {"class_name": "InstanceNormalization", "config": {"name": "instance_normalization_13", "trainable": true, "dtype": "float32", "epsilon": 1e-05}}, {"class_name": "ReLU", "config": {"name": "re_lu_6", "trainable": true, "dtype": "float32", "max_value": null, "negative_slope": 0.0, "threshold": 0.0}}]}, "name": "sequential_14", "inbound_nodes": [[["concatenate", 5, 0, {}]]]}, {"class_name": "Conv2DTranspose", "config": {"name": "conv2d_transpose_7", "trainable": true, "dtype": "float32", "filters": 3, "kernel_size": [4, 4], "strides": [2, 2], "padding": "same", "data_format": "channels_last", "dilation_rate": [1, 1], "groups": 1, "activation": "tanh", "use_bias": true, "kernel_initializer": {"class_name": "RandomNormal", "config": {"mean": 0.0, "stddev": 0.02, "seed": null}}, "bias_initializer": {"class_name": "Zeros", "config": {}}, "kernel_regularizer": null, "bias_regularizer": null, "activity_regularizer": null, "kernel_constraint": null, "bias_constraint": null, "output_padding": null}, "name": "conv2d_transpose_7", "inbound_nodes": [[["concatenate", 6, 0, {}]]]}], "input_layers": [["input_1", 0, 0]], "output_layers": [["conv2d_transpose_7", 0, 0]]}}}, "weightsManifest": [{"paths": ["group1-shard1of52.bin", "group1-shard2of52.bin", "group1-shard3of52.bin", "group1-shard4of52.bin", "group1-shard5of52.bin", "group1-shard6of52.bin", "group1-shard7of52.bin", "group1-shard8of52.bin", "group1-shard9of52.bin", "group1-shard10of52.bin", "group1-shard11of52.bin", "group1-shard12of52.bin", "group1-shard13of52.bin", "group1-shard14of52.bin", "group1-shard15of52.bin", "group1-shard16of52.bin", "group1-shard17of52.bin", "group1-shard18of52.bin", "group1-shard19of52.bin", "group1-shard20of52.bin", "group1-shard21of52.bin", "group1-shard22of52.bin", "group1-shard23of52.bin", "group1-shard24of52.bin", "group1-shard25of52.bin", "group1-shard26of52.bin", "group1-shard27of52.bin", "group1-shard28of52.bin", "group1-shard29of52.bin", "group1-shard30of52.bin", "group1-shard31of52.bin", "group1-shard32of52.bin", "group1-shard33of52.bin", "group1-shard34of52.bin", "group1-shard35of52.bin", "group1-shard36of52.bin", "group1-shard37of52.bin", "group1-shard38of52.bin", "group1-shard39of52.bin", "group1-shard40of52.bin", "group1-shard41of52.bin", "group1-shard42of52.bin", "group1-shard43of52.bin", "group1-shard44of52.bin", "group1-shard45of52.bin", "group1-shard46of52.bin", "group1-shard47of52.bin", "group1-shard48of52.bin", "group1-shard49of52.bin", "group1-shard50of52.bin", "group1-shard51of52.bin", "group1-shard52of52.bin"], "weights": [{"name": "conv2d_transpose_7/kernel", "shape": [4, 4, 3, 128], "dtype": "float32"}, {"name": "conv2d_transpose_7/bias", "shape": [3], "dtype": "float32"}, {"name": "conv2d/kernel", "shape": [4, 4, 3, 64], "dtype": "float32"}, {"name": "conv2d_1/kernel", "shape": [4, 4, 64, 128], "dtype": "float32"}, {"name": "instance_normalization/scale", "shape": [128], "dtype": "float32"}, {"name": "instance_normalization/offset", "shape": [128], "dtype": "float32"}, {"name": "conv2d_transpose_2/kernel", "shape": [4, 4, 512, 1024], "dtype": "float32"}, {"name": "instance_normalization_9/scale", "shape": [512], "dtype": "float32"}, {"name": "instance_normalization_9/offset", "shape": [512], "dtype": "float32"}, {"name": "conv2d_transpose_3/kernel", "shape": [4, 4, 512, 1024], "dtype": "float32"}, {"name": "instance_normalization_10/scale", "shape": [512], "dtype": "float32"}, {"name": "instance_normalization_10/offset", "shape": [512], "dtype": "float32"}, {"name": "conv2d_transpose_4/kernel", "shape": [4, 4, 256, 1024], "dtype": "float32"}, {"name": "instance_normalization_11/scale", "shape": [256], "dtype": "float32"}, {"name": "instance_normalization_11/offset", "shape": [256], "dtype": "float32"}, {"name": "conv2d_transpose_5/kernel", "shape": [4, 4, 128, 512], "dtype": "float32"}, {"name": "instance_normalization_12/scale", "shape": [128], "dtype": "float32"}, {"name": "instance_normalization_12/offset", "shape": [128], "dtype": "float32"}, {"name": "conv2d_transpose_6/kernel", "shape": [4, 4, 64, 256], "dtype": "float32"}, {"name": "instance_normalization_13/scale", "shape": [64], "dtype": "float32"}, {"name": "instance_normalization_13/offset", "shape": [64], "dtype": "float32"}, {"name": "conv2d_2/kernel", "shape": [4, 4, 128, 256], "dtype": "float32"}, {"name": "instance_normalization_1/scale", "shape": [256], "dtype": "float32"}, {"name": "instance_normalization_1/offset", "shape": [256], "dtype": "float32"}, {"name": "conv2d_3/kernel", "shape": [4, 4, 256, 512], "dtype": "float32"}, {"name": "instance_normalization_2/scale", "shape": [512], "dtype": "float32"}, {"name": "instance_normalization_2/offset", "shape": [512], "dtype": "float32"}, {"name": "conv2d_4/kernel", "shape": [4, 4, 512, 512], "dtype": "float32"}, {"name": "instance_normalization_3/scale", "shape": [512], "dtype": "float32"}, {"name": "instance_normalization_3/offset", "shape": [512], "dtype": "float32"}, {"name": "conv2d_5/kernel", "shape": [4, 4, 512, 512], "dtype": "float32"}, {"name": "instance_normalization_4/scale", "shape": [512], "dtype": "float32"}, {"name": "instance_normalization_4/offset", "shape": [512], "dtype": "float32"}, {"name": "conv2d_6/kernel", "shape": [4, 4, 512, 512], "dtype": "float32"}, {"name": "instance_normalization_5/scale", "shape": [512], "dtype": "float32"}, {"name": "instance_normalization_5/offset", "shape": [512], "dtype": "float32"}, {"name": "conv2d_7/kernel", "shape": [4, 4, 512, 512], "dtype": "float32"}, {"name": "instance_normalization_6/scale", "shape": [512], "dtype": "float32"}, {"name": "instance_normalization_6/offset", "shape": [512], "dtype": "float32"}, {"name": "conv2d_transpose/kernel", "shape": [4, 4, 512, 512], "dtype": "float32"}, {"name": "instance_normalization_7/scale", "shape": [512], "dtype": "float32"}, {"name": "instance_normalization_7/offset", "shape": [512], "dtype": "float32"}, {"name": "conv2d_transpose_1/kernel", "shape": [4, 4, 512, 1024], "dtype": "float32"}, {"name": "instance_normalization_8/scale", "shape": [512], "dtype": "float32"}, {"name": "instance_normalization_8/offset", "shape": [512], "dtype": "float32"}]}]}